edgetpu/models/dnn_baseline_quant.tflite (tflite, 9768 bytes, 16 tensors)

std.constant i1 [20] scale=0.03496754 zero_point=0
00000000: 5f2e 662d 3832 4636 257f 3b47 3144 3830
00000010: 6838 3a3d
3.3219166 1.6085069 3.5666893 1.5735394 1.9581823 1.7483771 2.447728 1.8882473
1.293799 4.440878 2.063085 2.4826956 1.7134095 2.3777928 1.9581823 1.678442
3.6366243 1.9581823 2.0281174 2.13302

std.constant1 i1 [20] scale=0.010220975 zero_point=0
00000000: a2a4 c38f 94c7 9bae cfae b0a8 8181 cbd9
00000010: 89d4 eabe
-0.9607716 -0.9403297 -0.6234795 -1.1549702 -1.1038653 -0.5825956 -1.0323185 -0.8381199
-0.5008278 -0.8381199 -0.817678 -0.8994458 -1.2980638 -1.2980638 -0.5417117 -0.398618
-1.216296 -0.4497229 -0.22486144 -0.6745843

std.constant2 i1 [20] scale=0.014301231 zero_point=0
00000000: 7566 646d 707f 3f53 554b 6e6e 4660 574f
00000010: 6f3e 505a
1.673244 1.4587256 1.4301231 1.5588342 1.6017379 1.8162564 0.90097755 1.1870022
1.2156047 1.0725924 1.5731354 1.5731354 1.0010862 1.3729181 1.2442071 1.1297972
1.5874367 0.8866763 1.1440985 1.2871108

std.constant3 i1 [20] scale=0.010979488 zero_point=0
00000000: b9a6 97ab c681 b3b3 c7c7 a8bc e6a8 bec3
00000010: b0cb d2b8
-0.77954364 -0.9881539 -1.1528462 -0.93325645 -0.6368103 -1.3943949 -0.84542054 -0.84542054
-0.62583077 -0.62583077 -0.9661949 -0.74660516 -0.28546667 -0.9661949 -0.72464615 -0.6697487
-0.878359 -0.5819128 -0.50505644 -0.7905231

std.constant4 i1 [20] scale=0.015779475 zero_point=0
00000000: 567f 5149 5854 7c62 574e 4234 423b 7663
00000010: 625e 603b
1.3570348 2.0039933 1.2781374 1.1519016 1.3885938 1.3254759 1.9566549 1.5463885
1.3728143 1.2307991 1.0414454 0.8205327 1.0414454 0.930989 1.861978 1.562168
1.5463885 1.4832706 1.5148296 0.930989

std.constant5 i1 [20] scale=0.009304405 zero_point=0
00000000: a198 81a1 c693 b4a5 bbcb a8bf 9fa3 b4c5
00000010: 92c2 c19d
-0.88391846 -0.96765816 -1.1816595 -0.88391846 -0.5396555 -1.0141802 -0.7071348 -0.84670085
-0.64200395 -0.4931335 -0.81878763 -0.60478634 -0.90252733 -0.86530966 -0.7071348 -0.5489599
-1.0234846 -0.5768731 -0.5861775 -0.92113614

std.constant6 i1 [20] scale=0.017491218 zero_point=0
00000000: 7c49 655e 684a 7f7a 7260 6055 6066 4e48
00000010: 654f 6047
2.168911 1.2768589 1.766613 1.6441745 1.8190867 1.2943501 2.2213848 2.1339285
1.9939988 1.6791569 1.6791569 1.4867535 1.6791569 1.7841042 1.364315 1.2593677
1.766613 1.3818063 1.6791569 1.2418765

std.constant7 i1 [20] scale=0.011828245 zero_point=0
00000000: afaa 879c bbbb b1c6 aab9 95a0 84b0 a9b9
00000010: aca9 81be
-0.9580878 -1.0172291 -1.4312176 -1.1828245 -0.8161489 -0.8161489 -0.9344313 -0.6860382
-1.0172291 -0.83980536 -1.2656221 -1.1355115 -1.4667023 -0.94625956 -1.0290573 -0.83980536
-0.99357253 -1.0290573 -1.502187 -0.78066415

std.constant8 i1 [8] scale=0.01222613 zero_point=0
00000000: 212d 4452 5861 7f67
0.4034623 0.55017585 0.83137685 1.0025426 1.0758995 1.1859345 1.5527185 1.2592914

std.constant9 i1 [8] scale=0.0017286724 zero_point=0
00000000: 601c 7f6f fee7 462c
0.16595255 0.048402827 0.2195414 0.19188264 -0.0034573448 -0.04321681 0.12100707 0.076061584

std.constant10 i1 [20, 8] scale=0.0052313814 zero_point=0
00000000: aa22 ca02 11f8 24d4 6ec1 f614 1df1 202e
00000010: babd b4f6 f00e 07e1 0205 1e7f d6fc e5c0
00000020: 3c4a fd20 5ccc 09f5 36ea 5e3b 2bfb d3fa
00000030: eefb 5501 320b 2e1e 38c6 5bd6 de39 e9b6
00000040: 63ef 2307 693c 9d1a 2de9 44c3 11db e0e2
00000050: b4e6 4506 6096 dcd0 edd1 a31b 13f3 9d10
00000060: 6f25 42a7 f210 3812 08d5 541a e9e0 1f1a
00000070: cb0f ffbf d2ca d52c 189c e8ae 2447 c515
00000080: 15bd 0c10 9ee5 081d b706 07c3 0262 3cf0
00000090: da1f d9d8 e855 2e58 3dc7 df15 cf41 023c
-0.4498988 0.17786697 -0.2824946 0.010462763 0.08893348 -0.04185105 0.18832973 -0.23018079
0.57545197 -0.32957703 -0.052313812 0.104627624 0.15171006 -0.07847072 0.1674042 0.24064355
-0.3661967 -0.35050255 -0.39758497 -0.052313812 -0.0837021 0.07323934 0.03661967 -0.16217282
0.010462763 0.026156906 0.15694144 0.66438544 -0.21971802 -0.020925526 -0.1412473 -0.3348084
0.3138829 0.3871222 -0.015694145 0.1674042 0.4812871 -0.27203184 0.04708243 -0.057545196
0.2824946 -0.11509039 0.49174985 0.3086515 0.2249494 -0.026156906 -0.23541217 -0.03138829
-0.09416486 -0.026156906 0.44466743 0.0052313814 0.26156908 0.057545196 0.24064355 0.15694144
0.29295737 -0.30342013 0.4760557 -0.21971802 -0.17786697 0.29818875 -0.12032177 -0.3871222
0.5179068 -0.08893348 0.18309835 0.03661967 0.54929507 0.3138829 -0.5179068 0.13601592
0.23541217 -0.12032177 0.35573393 -0.31911427 0.08893348 -0.1935611 -0.1674042 -0.15694144
-0.39758497 -0.13601592 0.3609653 0.03138829 0.50221264 -0.55452645 -0.18832973 -0.25110632
-0.09939624 -0.24587493 -0.48651847 0.1412473 0.09939624 -0.06800796 -0.5179068 0.0837021
0.58068335 0.1935611 0.34527117 -0.46559295 -0.07323934 0.0837021 0.29295737 0.09416486
0.04185105 -0.2249494 0.43943605 0.13601592 -0.12032177 -0.1674042 0.16217282 0.13601592
-0.27726322 0.07847072 -0.0052313814 -0.3400398 -0.24064355 -0.2824946 -0.2249494 0.23018079
0.12555316 -0.52313817 -0.12555316 -0.4289733 0.18832973 0.37142807 -0.3086515 0.10985901
0.10985901 -0.35050255 0.06277658 0.0837021 -0.5126754 -0.1412473 0.04185105 0.15171006
-0.38189083 0.03138829 0.03661967 -0.31911427 0.010462763 0.5126754 0.3138829 -0.0837021
-0.19879249 0.16217282 -0.20402387 -0.20925525 -0.12555316 0.44466743 0.24064355 0.46036157
0.31911427 -0.29818875 -0.17263559 0.10985901 -0.2563377 0.3400398 0.010462763 0.3138829

std.constant11 i1 [20, 20] scale=0.0050784126 zero_point=0
00000000: 1b02 0a33 d7c0 3733 0910 2ef2 9f4b e832
00000010: 0df6 cd03 d021 c2cb 030e 090e c521 001d
00000020: c83d 3422 63a2 ca14 19f5 df93 dd1a f2e1
00000030: b465 fb02 00e6 2dfc dae7 2ff2 e1d9 df52
00000040: 2834 f0da f7e5 3cdd b2d2 d219 39e4 061b
00000050: d464 1e07 3dea e81b 1221 d711 3dd4 f72e
00000060: 112c ed06 e2b8 0316 a218 4301 f3f8 5631
00000070: dd0f 27e6 123a 1006 c63a 1c34 a440 ff65
00000080: 092b 273c 151c 0f1f f209 2941 c2dd 0cd9
00000090: b322 c9fc 1bd4 eccb 3350 4adf 2adf 48f1
000000a0: 30de 1515 0fc3 c78e 1edf bc7f d5de 0b28
000000b0: e621 e332 48e4 33dd 2301 3a02 43f5 3c1d
000000c0: 4ef6 e307 bffd 39e0 3411 40da 2739 f93a
000000d0: 2b53 27ba d0c2 320d 1cee faa3 ced3 4636
000000e0: a89b fe53 d83e a7fa 17fd d40c 5dc0 fd37
000000f0: 3fde edd9 fff1 2cb0 c01c e0f4 37de 073e
0.13711715 0.010156825 0.050784126 0.25899905 -0.20821491 -0.3250184 0.2793127 0.25899905
0.045705713 0.0812546 0.23360698 -0.07109778 -0.492606 0.38088095 -0.1218819 0.2539206
0.06601936 -0.050784126 -0.25899905 0.015235238 -0.2437638 0.16758761 -0.3148616 -0.26915586
0.015235238 0.07109778 0.045705713 0.07109778 -0.29962635 0.16758761 0.0 0.14727396
-0.2843911 0.30978316 0.26407745 0.17266603 0.50276285 -0.4773708 -0.2742343 0.10156825
0.1269603 -0.05586254 -0.16758761 -0.55354697 -0.17774445 0.13203873 -0.07109778 -0.1574308
-0.38595936 0.51291966 -0.025392063 0.010156825 0.0 -0.13203873 0.22852856 -0.02031365
-0.19297968 -0.1269603 0.2386854 -0.07109778 -0.1574308 -0.1980581 -0.16758761 0.41642982
0.2031365 0.26407745 -0.0812546 -0.19297968 -0.045705713 -0.13711715 0.30470476 -0.17774445
-0.3961162 -0.23360698 -0.23360698 0.1269603 0.2894695 -0.14219555 0.030470476 0.13711715
-0.22345015 0.5078412 0.15235238 0.03554889 0.30978316 -0.11172508 -0.1218819 0.13711715
0.09141143 0.16758761 -0.20821491 0.086333014 0.30978316 -0.22345015 -0.045705713 0.23360698
0.086333014 0.22345015 -0.09648984 0.030470476 -0.15235238 -0.3656457 0.015235238 0.11172508
-0.4773708 0.1218819 0.34025365 0.0050784126 -0.06601936 -0.0406273 0.4367435 0.24884221
-0.17774445 0.07617619 0.1980581 -0.13203873 0.09141143 0.29454792 0.0812546 0.030470476
-0.29454792 0.29454792 0.14219555 0.26407745 -0.46721396 0.3250184 -0.0050784126 0.51291966
0.045705713 0.21837175 0.1980581 0.30470476 0.106646664 0.14219555 0.07617619 0.1574308
-0.07109778 0.045705713 0.20821491 0.3300968 -0.3148616 -0.17774445 0.06094095 -0.1980581
-0.39103776 0.17266603 -0.2793127 -0.02031365 0.13711715 -0.22345015 -0.10156825 -0.26915586
0.25899905 0.406273 0.37580252 -0.16758761 0.21329333 -0.16758761 0.3656457 -0.07617619
0.2437638 -0.17266603 0.106646664 0.106646664 0.07617619 -0.30978316 -0.2894695 -0.578939
0.15235238 -0.16758761 -0.34533206 0.6449584 -0.21837175 -0.17266603 0.05586254 0.2031365
-0.13203873 0.16758761 -0.14727396 0.2539206 0.3656457 -0.14219555 0.25899905 -0.17774445
0.17774445 0.0050784126 0.29454792 0.010156825 0.34025365 -0.05586254 0.30470476 0.14727396
0.3961162 -0.050784126 -0.14727396 0.03554889 -0.3300968 -0.015235238 0.2894695 -0.1625092
0.26407745 0.086333014 0.3250184 -0.19297968 0.1980581 0.2894695 -0.03554889 0.29454792
0.21837175 0.42150825 0.1980581 -0.3554889 -0.2437638 -0.3148616 0.2539206 0.06601936
0.14219555 -0.09141143 -0.030470476 -0.47229236 -0.2539206 -0.22852856 0.3554889 0.2742343
-0.4469003 -0.51291966 -0.010156825 0.42150825 -0.2031365 0.3148616 -0.4519787 -0.030470476
0.11680349 -0.015235238 -0.22345015 0.06094095 0.47229236 -0.3250184 -0.015235238 0.2793127
0.31994 -0.17266603 -0.09648984 -0.1980581 -0.0050784126 -0.07617619 0.22345015 -0.406273
-0.3250184 0.14219555 -0.1625092 -0.06094095 0.2793127 -0.17266603 0.03554889 0.3148616

std.constant12 i1 [20, 20] scale=0.004743463 zero_point=0
00000000: ca7f f04f 2003 0523 13e0 f5f2 e2c7 280a
00000010: 1330 e74e ce19 c1f5 c1f3 c0d5 c909 ec5b
00000020: 3dde 29d8 d416 dbf3 cbf8 d700 3998 add2
00000030: f532 2b45 00ba 1dd3 44e4 36cc ba19 1f11
00000040: 23b1 6621 c627 f4e1 0ffb 58b9 eee7 3cff
00000050: 3220 38f7 59d6 094b 721f 40e1 19e1 06ef
00000060: cb2f 2c1f c7aa 15be 232c 0905 402f 42db
00000070: 1fea 570e d0d6 c1c7 066a c7f9 e3ea 160a
00000080: 0210 bcb8 4506 ecf1 d7c3 cb0c ec1e 9200
00000090: 1e2c cdff 20f7 245a 2b26 c520 339e 03ca
000000a0: 11db 07d3 020b 3e64 50cd def8 4fe5 9ed1
000000b0: fc0f 48db 1dbc 3f32 4b0b b017 5d56 3d32
000000c0: 415d 2840 f42e 48f9 c018 17b1 20ff eaef
000000d0: 27fe 2b2f 2b38 f0a5 9ea0 3a27 dc25 2708
000000e0: 49db 27e8 09e1 6552 3033 27cb e920 fb30
000000f0: 31ae b5f0 0ece f50f fe14 0d32 fc09 4a1c
-0.256147 0.6024198 -0.07589541 0.37473357 0.15179081 0.014230389 0.023717314 0.1660212
0.09012579 -0.15179081 -0.052178092 -0.06640848 -0.14230388 -0.2703774 0.18973851 0.047434628
0.09012579 0.22768623 -0.11858657 0.3699901 -0.23717314 0.11858657 -0.29883817 -0.052178092
-0.29883817 -0.061665017 -0.30358163 -0.2039689 -0.26089045 0.042691167 -0.094869256 0.4316551
0.28935122 -0.16127774 0.19448198 -0.18973851 -0.20871237 0.104356185 -0.17550813 -0.061665017
-0.25140354 -0.037947703 -0.19448198 0.0 0.2703774 -0.49332014 -0.39370742 -0.2181993
-0.052178092 0.23717314 0.2039689 0.32729894 0.0 -0.3320424 0.13756043 -0.21345583
0.32255548 -0.13281696 0.256147 -0.24666007 -0.3320424 0.11858657 0.14704736 0.08063887
0.1660212 -0.37473357 0.48383322 0.15653427 -0.27512085 0.18499506 -0.056921557 -0.14704736
0.07115194 -0.023717314 0.41742474 -0.33678585 -0.085382335 -0.11858657 0.28460777 -0.004743463
0.23717314 0.15179081 0.2656339 -0.042691167 0.4221682 -0.19922544 0.042691167 0.3557597
0.5407548 0.14704736 0.30358163 -0.14704736 0.11858657 -0.14704736 0.028460778 -0.08063887
-0.25140354 0.22294275 0.20871237 0.14704736 -0.2703774 -0.4079378 0.09961272 -0.31306854
0.1660212 0.20871237 0.042691167 0.023717314 0.30358163 0.22294275 0.31306854 -0.17550813
0.14704736 -0.104356185 0.41268128 0.06640848 -0.22768623 -0.19922544 -0.29883817 -0.2703774
0.028460778 0.5028071 -0.2703774 -0.03320424 -0.13756043 -0.104356185 0.104356185 0.047434628
0.009486926 0.07589541 -0.32255548 -0.34152934 0.32729894 0.028460778 -0.094869256 -0.07115194
-0.19448198 -0.28935122 -0.25140354 0.056921557 -0.094869256 0.14230388 -0.5217809 0.0
0.14230388 0.20871237 -0.24191661 -0.004743463 0.15179081 -0.042691167 0.17076467 0.42691165
0.2039689 0.18025158 -0.2798643 0.15179081 0.24191661 -0.46485937 0.014230389 -0.256147
0.08063887 -0.17550813 0.03320424 -0.21345583 0.009486926 0.052178092 0.2940947 0.47434628
0.37947702 -0.24191661 -0.16127774 -0.037947703 0.37473357 -0.1280735 -0.46485937 -0.22294275
-0.018973852 0.07115194 0.34152934 -0.17550813 0.13756043 -0.32255548 0.29883817 0.23717314
0.3557597 0.052178092 -0.37947702 0.10909965 0.44114205 0.4079378 0.28935122 0.23717314
0.30832508 0.44114205 0.18973851 0.30358163 -0.056921557 0.2181993 0.34152934 -0.03320424
-0.30358163 0.11384311 0.10909965 -0.37473357 0.15179081 -0.004743463 -0.104356185 -0.08063887
0.18499506 -0.009486926 0.2039689 0.22294275 0.2039689 0.2656339 -0.07589541 -0.4316551
-0.46485937 -0.45537245 0.27512085 0.18499506 -0.17076467 0.17550813 0.18499506 0.037947703
0.3462728 -0.17550813 0.18499506 -0.11384311 0.042691167 -0.14704736 0.47908977 0.38896397
0.22768623 0.24191661 0.18499506 -0.25140354 -0.10909965 0.15179081 -0.023717314 0.22768623
0.23242968 -0.38896397 -0.3557597 -0.07589541 0.06640848 -0.23717314 -0.052178092 0.07115194
-0.009486926 0.094869256 0.061665017 0.23717314 -0.018973852 0.042691167 0.35101625 0.13281696

std.constant13 i1 [20, 20] scale=0.005495522 zero_point=0
00000000: cb0a 5e18 d9d0 ee31 e123 3dd7 20f3 350f
00000010: d705 e237 002d 3f2f 2e5f e55c 3d2a ed19
00000020: 29d7 eac8 df3c 0023 e0d8 1f37 251d 0637
00000030: 0028 cad1 c61b 1941 d73c 11e3 2d1b d626
00000040: f9cc 14fd 2939 14ff 0cdc 151d aa19 39c9
00000050: 3004 40e7 fe3e 06bb ee15 e9d8 e533 ec4d
00000060: ea3c e338 f208 b2ec ebe7 dab5 f341 4b40
00000070: dfd8 c201 0a55 0c1e 4028 2633 bb0a cf44
00000080: 30db ecba 3708 24e9 4223 0fb8 38d6 06b1
00000090: 2dd5 3b2a 0c13 e73b 3313 cff5 21da 2003
000000a0: 17e8 dd2a 00e5 d4c7 e8e7 1406 222d f5f8
000000b0: f4e5 ad1e 32ca ed38 2bc8 3b17 04f8 c306
000000c0: 1adc 0521 3a1d a0f3 c733 d1ea 2c43 09f9
000000d0: fd08 dd08 ad22 1314 f34b 1b13 3307 4316
000000e0: 2fd6 10d0 380e 133b 2628 13d0 e6bc 120f
000000f0: f6e4 f9fa e40c 04e2 21d7 03e5 1f5a dbf0
-0.2912627 0.05495522 0.5165791 0.13189253 -0.21432537 -0.26378506 -0.0989194 0.26928058
-0.17036119 0.19234328 0.33522686 -0.2253164 0.17585671 -0.071441785 0.2912627 0.08243284
-0.2253164 0.02747761 -0.16486567 0.30225372 0.0 0.2472985 0.3462179 0.25828955
0.25279403 0.5220746 -0.1483791 0.50558805 0.33522686 0.23081192 -0.104414925 0.13738805
0.2253164 -0.2253164 -0.12090149 -0.30774924 -0.18135223 0.32973135 0.0 0.19234328
-0.17585671 -0.21982089 0.17036119 0.30225372 0.20333432 0.15937014 0.032973133 0.30225372
0.0 0.21982089 -0.2967582 -0.25828955 -0.31874028 0.1483791 0.13738805 0.35720894
-0.2253164 0.32973135 0.09342387 -0.15937014 0.2472985 0.1483791 -0.23081192 0.20882985
-0.038468655 -0.28576714 0.10991044 -0.016486567 0.2253164 0.31324476 0.10991044 -0.005495522
0.065946266 -0.1978388 0.11540596 0.15937014 -0.4726149 0.13738805 0.31324476 -0.30225372
0.26378506 0.021982089 0.35171342 -0.13738805 -0.010991044 0.34072238 0.032973133 -0.37919104
-0.0989194 0.11540596 -0.12639701 -0.21982089 -0.1483791 0.28027162 -0.10991044 0.42315522
-0.12090149 0.32973135 -0.15937014 0.30774924 -0.07693731 0.043964177 -0.42865074 -0.10991044
-0.11540596 -0.13738805 -0.20882985 -0.41216415 -0.071441785 0.35720894 0.41216415 0.35171342
-0.18135223 -0.21982089 -0.34072238 0.005495522 0.05495522 0.4671194 0.065946266 0.16486567
0.35171342 0.21982089 0.20882985 0.28027162 -0.37919104 0.05495522 -0.26928058 0.3736955
0.26378506 -0.20333432 -0.10991044 -0.38468656 0.30225372 0.043964177 0.1978388 -0.12639701
0.36270446 0.19234328 0.08243284 -0.3956776 0.30774924 -0.23081192 0.032973133 -0.43414626
0.2472985 -0.23630746 0.3242358 0.23081192 0.065946266 0.104414925 -0.13738805 0.3242358
0.28027162 0.104414925 -0.26928058 -0.060450744 0.18135223 -0.20882985 0.17585671 0.016486567
0.12639701 -0.13189253 -0.19234328 0.23081192 0.0 -0.1483791 -0.24180298 -0.31324476
-0.13189253 -0.13738805 0.10991044 0.032973133 0.18684775 0.2472985 -0.060450744 -0.043964177
-0.065946266 -0.1483791 -0.45612833 0.16486567 0.2747761 -0.2967582 -0.104414925 0.30774924
0.23630746 -0.30774924 0.3242358 0.12639701 0.021982089 -0.043964177 -0.33522686 0.032973133
0.14288357 -0.1978388 0.02747761 0.18135223 0.31874028 0.15937014 -0.5275701 -0.071441785
-0.31324476 0.28027162 -0.25828955 -0.12090149 0.24180298 0.36819997 0.0494597 -0.038468655
-0.016486567 0.043964177 -0.19234328 0.043964177 -0.45612833 0.18684775 0.104414925 0.10991044
-0.071441785 0.41216415 0.1483791 0.104414925 0.28027162 0.038468655 0.36819997 0.12090149
0.25828955 -0.23081192 0.087928355 -0.26378506 0.30774924 0.07693731 0.104414925 0.3242358
0.20882985 0.21982089 0.104414925 -0.26378506 -0.14288357 -0.3736955 0.0989194 0.08243284
-0.05495522 -0.15387462 -0.038468655 -0.032973133 -0.15387462 0.065946266 0.021982089 -0.16486567
0.18135223 -0.2253164 0.016486567 -0.1483791 0.17036119 0.494597 -0.20333432 -0.087928355

std.constant14 i1 [20, 20] scale=0.0063394317 zero_point=0
00000000: 15f7 e3ab d55f c1fd 4118 b4d8 fe0a 08e7
00000010: e720 f516 14b6 2924 b4fc 34be e2b8 2ca6
00000020: c6ec d9f3 ffc1 af1d 12cd ece2 d024 2dc3
00000030: 351d e506 1ec6 0ed7 3fee d006 c1e3 da20
00000040: 10bc e125 c9e6 f660 fdc8 1ef5 46fe f3ef
00000050: bfcf c1e7 ec3b 053f cb02 e9ca 4205 c111
00000060: f1d7 e5fa ec21 e618 ce20 e803 13fd e21b
00000070: e3ba d0b0 054a f5dd 2aef cedc df4c ae27
00000080: 33ee c6e9 8102 fc3a 0614 ec13 06b2 2e56
00000090: 21cc 2f0f 02d7 3a9c 5615 f6c9 05d8 6aa3
000000a0: 0ac8 ee40 add3 ffdb dae3 b413 bdad ab1d
000000b0: e1ad c5d7 16d5 d007 3333 c718 3c13 e3e0
000000c0: dbae cd13 def2 fe1c 20c1 baff 2930 0ad5
000000d0: 2a07 04d4 c7d6 2ee0 2cf8 083a fc3f 4f0c
000000e0: e4e9 04a1 f0c5 3f96 cc4b b355 1313 d8a3
000000f0: 04f5 130f e6dc cce5 53f6 d928 2eb9 d8f2
0.13312806 -0.057054885 -0.18384352 -0.5388517 -0.27259555 0.602246 -0.3993842 -0.019018296
0.41206306 0.15214637 -0.4817968 -0.25357726 -0.0126788635 0.063394316 0.050715454 -0.1584858
-0.1584858 0.20286182 -0.06973375 0.1394675 0.12678863 -0.46911794 0.2599167 0.22821954
-0.4817968 -0.025357727 0.32965046 -0.4184025 -0.19018295 -0.45643908 0.278935 -0.57054883
-0.36768705 -0.12678863 -0.24723783 -0.082412615 -0.0063394317 -0.3993842 -0.51349396 0.18384352
0.11410977 -0.32331103 -0.12678863 -0.19018295 -0.30429274 0.22821954 0.28527442 -0.38670534
0.3359899 0.18384352 -0.17116466 0.038036592 0.19018295 -0.36768705 0.088752046 -0.2599167
0.3993842 -0.11410977 -0.30429274 0.038036592 -0.3993842 -0.18384352 -0.2408984 0.20286182
0.10143091 -0.43108135 -0.19652238 0.23455897 -0.34866875 -0.16482523 -0.063394316 0.6085855
-0.019018296 -0.35500818 0.19018295 -0.06973375 0.44376022 -0.0126788635 -0.082412615 -0.10777034
-0.41206306 -0.31063217 -0.3993842 -0.1584858 -0.12678863 0.37402648 0.031697158 0.3993842
-0.3359899 0.0126788635 -0.14580692 -0.34232932 0.4184025 0.031697158 -0.3993842 0.10777034
-0.09509148 -0.2599167 -0.17116466 -0.038036592 -0.12678863 0.20920125 -0.16482523 0.15214637
-0.3169716 0.20286182 -0.15214637 0.019018296 0.1204492 -0.019018296 -0.19018295 0.17116466
-0.18384352 -0.44376022 -0.30429274 -0.5071545 0.031697158 0.46911794 -0.06973375 -0.22188011
0.26625612 -0.10777034 -0.3169716 -0.22821954 -0.20920125 0.4817968 -0.5198334 0.24723783
0.32331103 -0.11410977 -0.36768705 -0.14580692 -0.80510783 0.0126788635 -0.025357727 0.36768705
0.038036592 0.12678863 -0.12678863 0.1204492 0.038036592 -0.49447566 0.29161385 0.5451911
0.20920125 -0.32965046 0.29795328 0.09509148 0.0126788635 -0.2599167 0.36768705 -0.6339432
0.5451911 0.13312806 -0.063394316 -0.34866875 0.031697158 -0.25357726 0.6719798 -0.5895671
0.063394316 -0.35500818 -0.11410977 0.40572363 -0.5261728 -0.28527442 -0.0063394317 -0.23455897
-0.2408984 -0.18384352 -0.4817968 0.1204492 -0.42474192 -0.5261728 -0.5388517 0.18384352
-0.19652238 -0.5261728 -0.37402648 -0.2599167 0.1394675 -0.27259555 -0.30429274 0.044376023
0.32331103 0.32331103 -0.36134762 0.15214637 0.3803659 0.1204492 -0.18384352 -0.20286182
-0.23455897 -0.5198334 -0.32331103 0.1204492 -0.21554068 -0.088752046 -0.0126788635 0.17750409
0.20286182 -0.3993842 -0.44376022 -0.0063394317 0.2599167 0.30429274 0.063394316 -0.27259555
0.26625612 0.044376023 0.025357727 -0.278935 -0.36134762 -0.26625612 0.29161385 -0.20286182
0.278935 -0.050715454 0.050715454 0.36768705 -0.025357727 0.3993842 0.5008151 0.076073185
-0.17750409 -0.14580692 0.025357727 -0.602246 -0.10143091 -0.37402648 0.3993842 -0.6719798
-0.32965046 0.47545737 -0.48813623 0.5388517 0.1204492 0.1204492 -0.25357726 -0.5895671
0.025357727 -0.06973375 0.1204492 0.09509148 -0.16482523 -0.22821954 -0.32965046 -0.17116466
0.5261728 -0.063394316 -0.24723783 0.25357726 0.29161385 -0.45009965 -0.25357726 -0.088752046

std.constant15 i1 [9, 20] scale=0.007937252 zero_point=0
00000000: dd27 0113 e30f 22aa 3d09 14e0 33ee bb2b
00000010: 17dd c7c3 3d07 06dc 1fd4 4ce5 0aef 35d4
00000020: dae8 c4d1 04bd d92d e315 d309 1f25 2bc9
00000030: 1fb5 00bc e3c7 f10f 3fc0 2517 c03a ead2
00000040: fb81 093b 12f3 f914 be35 e400 b632 470b
00000050: 2af9 eeb7 de26 25c7 ca2b 23bd 0be2 c90d
00000060: dac5 07fc f8fa 073e e7c9 c7a8 c6ba eac9
00000070: c0cb 3ee4 fbfc e6ca f6fa d50e 49c4 be2e
00000080: d931 130b ecf2 ca24 bd3b f31a d7c8 3ef2
00000090: e9e9 dec4 e489 15a5 1df5 20da 3c16 e8db
000000a0: eefd fe21 1efd d72d edfa cb0e 02eb c41b
000000b0: cad6 bee3
-0.2778038 0.30955282 0.007937252 0.15080778 -0.2301803 0.11905877 0.26986656 -0.68260366
0.48417234 0.071435265 0.15874504 -0.25399205 0.40479982 -0.14287053 -0.54767036 0.34130183
0.1825568 -0.2778038 -0.45242333 -0.48417234 0.48417234 0.05556076 0.047623508 -0.28574106
0.2460548 -0.34923908 0.60323113 -0.21430579 0.07937252 -0.13493328 0.42067432 -0.34923908
-0.30161557 -0.19049403 -0.4762351 -0.37305084 0.031749006 -0.53179586 -0.30955282 0.35717633
-0.2301803 0.16668229 -0.35717633 0.071435265 0.2460548 0.2936783 0.34130183 -0.43654883
0.2460548 -0.5952939 0.0 -0.5397331 -0.2301803 -0.45242333 -0.11905877 0.11905877
0.50004685 -0.5079841 0.2936783 0.1825568 -0.5079841 0.4603606 -0.17461954 -0.3651136
-0.03968626 -1.008031 0.071435265 0.46829784 0.14287053 -0.10318427 -0.05556076 0.15874504
-0.5238586 0.42067432 -0.22224304 0.0 -0.5873566 0.39686257 0.56354487 0.08730977
0.33336458 -0.05556076 -0.14287053 -0.5794194 -0.26986656 0.30161557 0.2936783 -0.45242333
-0.42861158 0.34130183 0.2778038 -0.53179586 0.08730977 -0.23811755 -0.43654883 0.10318427
-0.30161557 -0.46829784 0.05556076 -0.031749006 -0.06349801 -0.047623508 0.05556076 0.4921096
-0.19843128 -0.43654883 -0.45242333 -0.69847816 -0.4603606 -0.5556076 -0.17461954 -0.43654883
-0.5079841 -0.42067432 0.4921096 -0.22224304 -0.03968626 -0.031749006 -0.20636854 -0.42861158
-0.07937252 -0.047623508 -0.34130183 0.11112152 0.5794194 -0.4762351 -0.5238586 0.3651136
-0.30955282 0.3889253 0.15080778 0.08730977 -0.15874504 -0.11112152 -0.42861158 0.28574106
-0.53179586 0.46829784 -0.10318427 0.20636854 -0.32542732 -0.44448608 0.4921096 -0.11112152
-0.1825568 -0.1825568 -0.26986656 -0.4762351 -0.22224304 -0.94453293 0.16668229 -0.7222899
0.2301803 -0.08730977 0.25399205 -0.30161557 0.4762351 0.17461954 -0.19049403 -0.2936783
-0.14287053 -0.023811754 -0.015874503 0.2619293 0.23811755 -0.023811754 -0.32542732 0.35717633
-0.15080778 -0.047623508 -0.42067432 0.11112152 0.015874503 -0.16668229 -0.4762351 0.21430579
-0.42861158 -0.33336458 -0.5238586 -0.2301803
