edgetpu/models/dnn_baseline_nonorm_quant.tflite (tflite, 6304 bytes, 6 tensors)

std.constant i1 [20, 8] scale=0.008376814 zero_point=0
000000 e3 da ee 10 07 26 2e bc ef 26 07 16 f0 df 2d 23
       -0.24292761 -0.31831896 -0.15078266 0.13402903 0.0586377 0.31831896 0.38533348 -0.56962335 -0.14240584 0.31831896 0.0586377 0.18428992 -0.13402903 -0.27643487 0.37695664 0.2931885
000010 0b f3 d9 26 16 30 ef 03 2b 44 24 98 1d 46 30 df
       0.09214496 -0.10889859 -0.32669577 0.31831896 0.18428992 0.4020871 -0.14240584 0.025130443 0.36020303 0.56962335 0.30156532 -0.8711887 0.24292761 0.586377 0.4020871 -0.27643487
000020 f6 f1 2d 47 7f d9 fa 13 15 d8 c2 42 c2 d9 f5 bb
       -0.083768144 -0.12565222 0.37695664 0.5947538 1.0638554 -0.32669577 -0.050260887 0.15915948 0.1759131 -0.33507258 -0.5193625 0.55286974 -0.5193625 -0.32669577 -0.09214496 -0.5780002
000030 c5 4f df 06 22 0c f0 f8 30 17 22 ff a9 0b 10 dc
       -0.49423206 0.6617683 -0.27643487 0.050260887 0.28481168 0.10052177 -0.13402903 -0.067014515 0.4020871 0.19266674 0.28481168 -0.008376814 -0.72878283 0.09214496 0.13402903 -0.30156532
000040 3b e5 09 f5 02 24 3c 39 f4 14 50 df c9 cd 3d f8
       0.49423206 -0.226174 0.07539133 -0.09214496 0.016753629 0.30156532 0.5026089 0.4774784 -0.10052177 0.16753629 0.67014515 -0.27643487 -0.4607248 -0.42721754 0.5109857 -0.067014515
000050 e1 d9 07 4e 85 e6 09 3c d2 21 fb 21 5f 0e 2a f1
       -0.25968125 -0.32669577 0.0586377 0.65339154 -1.0303482 -0.21779718 0.07539133 0.5026089 -0.38533348 0.27643487 -0.041884072 0.27643487 0.79579735 0.1172754 0.3518262 -0.12565222
000060 ea dd 1d 45 3d d1 ee d9 e9 eb f3 ee 86 02 48 d4
       -0.18428992 -0.2931885 0.24292761 0.5780002 0.5109857 -0.3937103 -0.15078266 -0.32669577 -0.19266674 -0.1759131 -0.10889859 -0.15078266 -1.0219713 0.016753629 0.60313064 -0.36857983
000070 c6 f1 2a e1 0d e8 c3 ea 37 eb f8 f7 32 e0 f8 1f
       -0.48585522 -0.12565222 0.3518262 -0.25968125 0.10889859 -0.20104355 -0.5109857 -0.18428992 0.4607248 -0.1759131 -0.067014515 -0.07539133 0.4188407 -0.26805806 -0.067014515 0.25968125
000080 35 dd fa d2 0d f1 c1 a9 08 d0 3c cf fd f1 f2 e5
       0.44397116 -0.2931885 -0.050260887 -0.38533348 0.10889859 -0.12565222 -0.5277393 -0.72878283 0.067014515 -0.4020871 0.5026089 -0.4104639 -0.025130443 -0.12565222 -0.1172754 -0.226174
000090 f8 dc 24 3b d8 20 fa ed 21 23 af 26 e3 1c 1a 19
       -0.067014515 -0.30156532 0.30156532 0.49423206 -0.33507258 0.26805806 -0.050260887 -0.15915948 0.27643487 0.2931885 -0.678522 0.31831896 -0.24292761 0.2345508 0.21779718 0.20942035

std.constant1 i1 [20, 20] scale=0.007209861 zero_point=0
000000 0c 21 dc ef 1e 19 d3 0c 3d e3 2e c6 dd c5 d3 2d
       0.08651833 0.23792543 -0.259555 -0.12256764 0.21629584 0.18024653 -0.32444376 0.08651833 0.43980154 -0.20908597 0.33165362 -0.41817194 -0.25234514 -0.4253818 -0.32444376 0.32444376
000010 2d eb 31 b5 33 e5 f8 0b 1c 44 2a 38 e9 23 ed 38
       0.32444376 -0.15140708 0.3532832 -0.5407396 0.36770293 -0.19466625 -0.05767889 0.07930847 0.20187612 0.49027056 0.30281416 0.40375224 -0.16582681 0.25234514 -0.13698736 0.40375224
000020 de 01 23 14 1c f9 05 4a 17 44 ca 1c 1b f7 df 03
       -0.24513528 0.007209861 0.25234514 0.14419723 0.20187612 -0.05046903 0.036049306 0.5335297 0.16582681 0.49027056 -0.3893325 0.20187612 0.19466625 -0.06488875 -0.23792543 0.021629583
000030 30 27 dd c8 1a f4 ec f3 e0 d6 f9 12 39 e1 d0 03
       0.34607333 0.28118458 -0.25234514 -0.40375224 0.18745638 -0.08651833 -0.14419723 -0.09372819 -0.23071556 -0.30281416 -0.05046903 0.1297775 0.41096207 -0.22350569 -0.34607333 0.021629583
000040 3c 3b 34 de f5 2b 42 d5 1d 4c 1c fa 23 dc 0a eb
       0.43259168 0.4253818 0.37491277 -0.24513528 -0.07930847 0.31002402 0.47585085 -0.31002402 0.20908597 0.54794943 0.20187612 -0.043259166 0.25234514 -0.259555 0.07209861 -0.15140708
000050 13 f3 fa 2b 31 06 ff f0 25 f9 f3 23 f8 55 db e8
       0.13698736 -0.09372819 -0.043259166 0.31002402 0.3532832 0.043259166 -0.007209861 -0.11535778 0.26676485 -0.05046903 -0.09372819 0.25234514 -0.05767889 0.6128382 -0.26676485 -0.17303666
000060 cf 02 36 02 0c 46 10 63 3b 09 3f 3f 22 f9 ce 17
       -0.3532832 0.014419722 0.3893325 0.014419722 0.08651833 0.5046903 0.11535778 0.71377623 0.4253818 0.06488875 0.45422125 0.45422125 0.24513528 -0.05046903 -0.36049306 0.16582681
000070 ec bf 13 04 46 4a fb 16 2e ed bc 29 e2 25 f4 59
       -0.14419723 -0.46864098 0.13698736 0.028839445 0.5046903 0.5335297 -0.036049306 0.15861695 0.33165362 -0.13698736 -0.49027056 0.29560432 -0.21629584 0.26676485 -0.08651833 0.6416776
000080 e7 3e 13 24 01 09 30 ab b4 10 23 09 dc e7 f7 d0
       -0.18024653 0.44701138 0.13698736 0.259555 0.007209861 0.06488875 0.34607333 -0.6128382 -0.54794943 0.11535778 0.25234514 0.06488875 -0.259555 -0.18024653 -0.06488875 -0.34607333
000090 14 fb c5 2b 09 1e 3d da cd 30 ee 43 d9 c3 da 40
       0.14419723 -0.036049306 -0.4253818 0.31002402 0.06488875 0.21629584 0.43980154 -0.27397472 -0.36770293 0.34607333 -0.1297775 0.4830607 -0.28118458 -0.43980154 -0.27397472 0.46143112
0000a0 ce 10 c1 eb e2 25 e4 f9 32 15 24 bd d9 e6 44 0b
       -0.36049306 0.11535778 -0.45422125 -0.15140708 -0.21629584 0.26676485 -0.20187612 -0.05046903 0.36049306 0.15140708 0.259555 -0.4830607 -0.28118458 -0.18745638 0.49027056 0.07930847
0000b0 c1 1a fc f1 51 e1 ed 23 25 e3 22 ed ce fa 14 00
       -0.45422125 0.18745638 -0.028839445 -0.10814792 0.58399874 -0.22350569 -0.13698736 0.25234514 0.26676485 -0.20908597 0.24513528 -0.13698736 -0.36049306 -0.043259166 0.14419723 0.0
0000c0 f1 1e 1e 43 3a c6 c1 4d 2a dc e4 df 12 1c ce a4
       -0.10814792 0.21629584 0.21629584 0.4830607 0.41817194 -0.41817194 -0.45422125 0.55515933 0.30281416 -0.259555 -0.20187612 -0.23792543 0.1297775 0.20187612 -0.36049306 -0.66330725
0000d0 18 17 ed fe 40 33 32 01 0e 1c 01 fc dd 67 0d f7
       0.17303666 0.16582681 -0.13698736 -0.014419722 0.46143112 0.36770293 0.36049306 0.007209861 0.10093806 0.20187612 0.007209861 -0.028839445 -0.25234514 0.7426157 0.09372819 -0.06488875
0000e0 e5 25 b5 43 29 0c 81 f3 c1 49 ee f3 04 cf e6 de
       -0.19466625 0.26676485 -0.5407396 0.4830607 0.29560432 0.08651833 -0.9156524 -0.09372819 -0.45422125 0.52631986 -0.1297775 -0.09372819 0.028839445 -0.3532832 -0.18745638 -0.24513528
0000f0 ea 53 ff 2e 47 dd 0c 09 e9 05 e3 01 35 f1 20 f1
       -0.15861695 0.5984185 -0.007209861 0.33165362 0.5119001 -0.25234514 0.08651833 0.06488875 -0.16582681 0.036049306 -0.20908597 0.007209861 0.38212264 -0.10814792 0.23071556 -0.10814792

std.constant2 i1 [20, 20] scale=0.008766003 zero_point=0
000000 e9 fb 22 16 07 23 ea 11 c5 e8 03 f9 1b f5 d4 db
       -0.20161808 -0.043830015 0.2980441 0.19285206 0.06136202 0.3068101 -0.19285206 0.14902204 -0.51719415 -0.21038407 0.026298009 -0.06136202 0.23668209 -0.09642603 -0.38570413 -0.3243421
000010 12 23 db d0 c5 1e e4 17 30 1e 1e 3c c1 0f 2b 1b
       0.15778805 0.3068101 -0.3243421 -0.42076814 -0.51719415 0.2629801 -0.24544808 0.20161808 0.42076814 0.2629801 0.2629801 0.5259602 -0.5522582 0.13149005 0.37693813 0.23668209
000020 ce 36 3d 15 41 07 2d 1b 0c 16 3e e6 e5 0f 45 dd
       -0.43830013 0.47336417 0.5347262 0.18408605 0.5697902 0.06136202 0.39447013 0.23668209 0.105192035 0.19285206 0.5434922 -0.22791608 -0.23668209 0.13149005 0.6048542 -0.3068101
000030 30 d4 f2 34 f0 e5 f3 e0 c5 f5 c7 2d 09 e0 2d d5
       0.42076814 -0.38570413 -0.12272404 0.45583215 -0.14025605 -0.23668209 -0.11395804 -0.2805121 -0.51719415 -0.09642603 -0.49966216 0.39447013 0.07889403 -0.2805121 0.39447013 -0.37693813
000040 da 29 ed f6 16 fc 02 10 d6 df fb 4d 52 e5 00 f7
       -0.33310813 0.3594061 -0.16655406 -0.08766003 0.19285206 -0.03506401 0.017532006 0.14025605 -0.3681721 -0.2892781 -0.043830015 0.67498225 0.7188122 -0.23668209 0.0 -0.07889403
000050 f6 20 0d e4 ea 25 d2 1c b8 12 d3 1b ea 2d 0c c7
       -0.08766003 0.2805121 0.11395804 -0.24544808 -0.19285206 0.3243421 -0.40323615 0.24544808 -0.6311522 0.15778805 -0.39447013 0.23668209 -0.19285206 0.39447013 0.105192035 -0.49966216
000060 00 0b cd 1b ec 25 1f 0e f0 e7 10 2c b3 ed 07 01
       0.0 0.09642603 -0.44706616 0.23668209 -0.17532006 0.3243421 0.2717461 0.12272404 -0.14025605 -0.21915007 0.14025605 0.38570413 -0.67498225 -0.16655406 0.06136202 0.008766003
000070 e6 25 37 23 61 aa 4b 63 0c be 20 1d fd ea db 3a
       -0.22791608 0.3243421 0.48213017 0.3068101 0.8503023 -0.75387627 0.6574502 0.86783427 0.105192035 -0.5785562 0.2805121 0.25421408 -0.026298009 -0.19285206 -0.3243421 0.50842816
000080 21 b4 01 da d2 ed bc c5 0f f8 32 e9 39 f4 1c 23
       0.2892781 -0.66621625 0.008766003 -0.33310813 -0.40323615 -0.16655406 -0.5960882 -0.51719415 0.13149005 -0.07012802 0.43830013 -0.20161808 0.49966216 -0.105192035 0.24544808 0.3068101
000090 f0 24 28 c6 13 09 06 3a 22 cd 04 dd 10 d3 cd d5
       -0.14025605 0.3155761 0.35064012 -0.50842816 0.16655406 0.07889403 0.052596018 0.50842816 0.2980441 -0.44706616 0.03506401 -0.3068101 0.14025605 -0.39447013 -0.44706616 -0.37693813
0000a0 ff 39 e1 fc 3a 0b 35 35 50 41 f9 ed 3a 1e f6 2a
       -0.008766003 0.49966216 -0.2717461 -0.03506401 0.50842816 0.09642603 0.46459815 0.46459815 0.70128024 0.5697902 -0.06136202 -0.16655406 0.50842816 0.2629801 -0.08766003 0.3681721
0000b0 3d cc 49 e4 14 08 e0 19 13 a5 fe 2a ee ed fa 35
       0.5347262 -0.45583215 0.6399182 -0.24544808 0.17532006 0.07012802 -0.2805121 0.21915007 0.16655406 -0.79770625 -0.017532006 0.3681721 -0.15778805 -0.16655406 -0.052596018 0.46459815
0000c0 cc f2 d2 27 d3 00 2e 7f 3a e7 09 f4 f2 fc 0d fa
       -0.45583215 -0.12272404 -0.40323615 0.34187412 -0.39447013 0.0 0.40323615 1.1132823 0.50842816 -0.21915007 0.07889403 -0.105192035 -0.12272404 -0.03506401 0.11395804 -0.052596018
0000d0 f0 0d f8 1d ed 34 ec e2 2d 45 db b9 f2 21 17 32
       -0.14025605 0.11395804 -0.07012802 0.25421408 -0.16655406 0.45583215 -0.17532006 -0.2629801 0.39447013 0.6048542 -0.3243421 -0.6223862 -0.12272404 0.2892781 0.20161808 0.43830013
0000e0 24 0e 20 2c d2 31 36 f0 0d f8 0b e2 45 f2 4a 20
       0.3155761 0.12272404 0.2805121 0.38570413 -0.40323615 0.42953414 0.47336417 -0.14025605 0.11395804 -0.07012802 0.09642603 -0.2629801 0.6048542 -0.12272404 0.6486842 0.2805121
0000f0 e4 e0 1f e4 e6 da 19 e5 e4 d4 0a 10 e7 db 1b 1d
       -0.24544808 -0.2805121 0.2717461 -0.24544808 -0.22791608 -0.33310813 0.21915007 -0.23668209 -0.24544808 -0.38570413 0.08766003 0.14025605 -0.21915007 -0.3243421 0.23668209 0.25421408

std.constant3 i1 [20, 20] scale=0.009169056 zero_point=0
000000 09 07 fe f1 f8 0a 15 27 ed 16 f1 dc 28 d9 f7 f5
       0.082521506 0.06418339 -0.018338112 -0.13753584 -0.07335245 0.09169056 0.19255018 0.35759318 -0.17421207 0.20171924 -0.13753584 -0.33008602 0.36676225 -0.35759318 -0.082521506 -0.10085962
000010 05 e8 0e d8 07 3d cf f7 3e ff 1b d6 2a 39 27 37
       0.04584528 -0.22005734 0.12836678 -0.36676225 0.06418339 0.5593124 -0.44928375 -0.082521506 0.5684815 -0.009169056 0.24756451 -0.38510036 0.38510036 0.5226362 0.35759318 0.5042981
000020 0b 2c 14 e3 22 dd 15 2a f9 f9 df f5 36 0e ec eb
       0.10085962 0.40343848 0.18338113 -0.26590264 0.3117479 -0.32091695 0.19255018 0.38510036 -0.06418339 -0.06418339 -0.30257884 -0.10085962 0.49512902 0.12836678 -0.18338113 -0.19255018
000030 16 09 06 2d 22 18 29 2a ec 0e 31 30 df 06 21 15
       0.20171924 0.082521506 0.055014335 0.41260752 0.3117479 0.22005734 0.3759313 0.38510036 -0.18338113 0.12836678 0.44928375 0.44011468 -0.30257884 0.055014335 0.30257884 0.19255018
000040 15 13 44 1e dc 1c 28 db 17 e7 f7 1d 24 1f 2f b3
       0.19255018 0.17421207 0.6234958 0.27507168 -0.33008602 0.25673357 0.36676225 -0.33925506 0.2108883 -0.2292264 -0.082521506 0.26590264 0.33008602 0.28424075 0.43094563 -0.7060173
000050 0e 32 fa f4 22 2c e7 e1 17 60 2c 0c 11 ef e9 07
       0.12836678 0.4584528 -0.055014335 -0.11002867 0.3117479 0.40343848 -0.2292264 -0.28424075 0.2108883 0.88022935 0.40343848 0.11002867 0.15587395 -0.15587395 -0.2108883 0.06418339
000060 26 de 33 f4 13 e8 25 26 18 03 e7 1a d4 ec 19 07
       0.34842414 -0.3117479 0.46762186 -0.11002867 0.17421207 -0.22005734 0.33925506 0.34842414 0.22005734 0.027507167 -0.2292264 0.23839545 -0.40343848 -0.18338113 0.2292264 0.06418339
000070 11 2a 27 ec d0 31 32 ed ff db d7 f3 ca a6 00 2c
       0.15587395 0.38510036 0.35759318 -0.18338113 -0.44011468 0.44928375 0.4584528 -0.17421207 -0.009169056 -0.33925506 -0.3759313 -0.119197726 -0.49512902 -0.82521504 0.0 0.40343848
000080 27 a9 d9 20 11 18 df 04 d6 0c 34 2e 06 f4 4b 3c
       0.35759318 -0.79770786 -0.35759318 0.2934098 0.15587395 0.22005734 -0.30257884 0.036676224 -0.38510036 0.11002867 0.4767909 0.4217766 0.055014335 -0.11002867 0.68767923 0.55014336
000090 f3 cd ff 25 1a ac ef d6 fc 2e 28 df f0 13 ee 0d
       -0.119197726 -0.46762186 -0.009169056 0.33925506 0.23839545 -0.7702007 -0.15587395 -0.38510036 -0.036676224 0.4217766 0.36676225 -0.30257884 -0.1467049 0.17421207 -0.16504301 0.119197726
0000a0 fa da 27 07 2e f6 ef 22 c2 2d 55 e7 ea 02 ee 10
       -0.055014335 -0.34842414 0.35759318 0.06418339 0.4217766 -0.09169056 -0.15587395 0.3117479 -0.5684815 0.41260752 0.7793698 -0.2292264 -0.20171924 0.018338112 -0.16504301 0.1467049
0000b0 03 db 24 09 e0 e9 14 09 f0 83 fa 2f 32 8f f5 f3
       0.027507167 -0.33925506 0.33008602 0.082521506 -0.2934098 -0.2108883 0.18338113 0.082521506 -0.1467049 -1.146132 -0.055014335 0.43094563 0.4584528 -1.0361034 -0.10085962 -0.119197726
0000c0 1e 24 18 f1 d2 2e 25 14 d1 cd 2e 02 0f 21 de 37
       0.27507168 0.33008602 0.22005734 -0.13753584 -0.4217766 0.4217766 0.33925506 0.18338113 -0.43094563 -0.46762186 0.4217766 0.018338112 0.13753584 0.30257884 -0.3117479 0.5042981
0000d0 e5 de 00 13 de eb 22 ed 07 19 03 f3 c8 18 00 25
       -0.24756451 -0.3117479 0.0 0.17421207 -0.3117479 -0.19255018 0.3117479 -0.17421207 0.06418339 0.2292264 0.027507167 -0.119197726 -0.51346713 0.22005734 0.0 0.33925506
0000e0 19 56 3b 03 00 15 04 22 25 2e 21 0e ee 34 e4 03
       0.2292264 0.7885388 0.5409743 0.027507167 0.0 0.19255018 0.036676224 0.3117479 0.33925506 0.4217766 0.30257884 0.12836678 -0.16504301 0.4767909 -0.25673357 0.027507167
0000f0 05 41 04 15 06 37 43 11 03 4f c1 14 e5 33 00 27
       0.04584528 0.59598863 0.036676224 0.19255018 0.055014335 0.5042981 0.6143268 0.15587395 0.027507167 0.72435546 -0.57765055 0.18338113 -0.24756451 0.46762186 0.0 0.35759318

std.constant4 i1 [20, 20] scale=0.0054524424 zero_point=0
000000 fe 00 37 0b f3 52 1b 6a 5a 32 fb c7 3d c3 3a b6
       -0.010904885 0.0 0.29988435 0.05997687 -0.070881754 0.44710028 0.14721595 0.5779589 0.49071983 0.2726221 -0.027262213 -0.31078923 0.33259898 -0.33259898 0.31624165 -0.40348074
000010 ed f6 2e f1 db 2e 03 4a 17 e2 e6 24 10 fc 55 5b
       -0.103596404 -0.054524425 0.25081235 -0.08178664 -0.20174037 0.25081235 0.016357327 0.40348074 0.12540618 -0.16357328 -0.14176351 0.19628793 0.08723908 -0.02180977 0.4634576 0.49617225
000020 46 fc c7 1c 5d db d9 e1 cf 0f 46 ac bb ca 3c e4
       0.38167098 -0.02180977 -0.31078923 0.15266839 0.50707716 -0.20174037 -0.21264526 -0.16902572 -0.26716968 0.08178664 0.38167098 -0.45800516 -0.37621853 -0.2944319 0.32714656 -0.15266839
000030 3a 30 5f d3 ec 34 1f 1e 04 46 2b 2a 40 09 12 02
       0.31624165 0.26171723 0.517982 -0.24535991 -0.10904885 0.28352702 0.16902572 0.16357328 0.02180977 0.38167098 0.23445502 0.22900258 0.34895632 0.049071983 0.098143965 0.010904885
000040 f1 de fe 2e 1d c6 b7 d7 ff f6 dc 22 12 3a 13 b3
       -0.08178664 -0.18538304 -0.010904885 0.25081235 0.15812083 -0.31624165 -0.39802828 -0.22355014 -0.0054524424 -0.054524425 -0.19628793 0.18538304 0.098143965 0.31624165 0.103596404 -0.41983807
000050 e1 18 45 bc 56 cd de e8 ff bd 18 c6 12 31 07 06
       -0.16902572 0.13085862 0.37621853 -0.37076607 0.46891004 -0.27807456 -0.18538304 -0.13085862 -0.0054524424 -0.36531365 0.13085862 -0.31624165 0.098143965 0.26716968 0.038167097 0.032714654
000060 a1 b8 07 52 01 50 2b b6 f8 ad 35 15 de 3c 29 f7
       -0.517982 -0.39257586 0.038167097 0.44710028 0.0054524424 0.4361954 0.23445502 -0.40348074 -0.04361954 -0.45255274 0.28897944 0.11450129 -0.18538304 0.32714656 0.22355014 -0.049071983
000070 2b 4f c0 4a 0b 3b 2e 0f fa ef 01 38 d2 df 2d 27
       0.23445502 0.43074295 -0.34895632 0.40348074 0.05997687 0.3216941 0.25081235 0.08178664 -0.032714654 -0.09269152 0.0054524424 0.30533677 -0.25081235 -0.1799306 0.24535991 0.21264526
000080 00 58 71 32 cc 36 dd fe e6 5c 25 fa 00 e6 4c e2
       0.0 0.47981495 0.616126 0.2726221 -0.28352702 0.2944319 -0.19083549 -0.010904885 -0.14176351 0.5016247 0.20174037 -0.032714654 0.0 -0.14176351 0.41438562 -0.16357328
000090 04 15 52 c7 f2 19 fb 00 28 0e 1a f0 aa 4f e3 ee
       0.02180977 0.11450129 0.44710028 -0.31078923 -0.07633419 0.13631105 -0.027262213 0.0 0.2180977 0.07633419 0.14176351 -0.08723908 -0.46891004 0.43074295 -0.15812083 -0.098143965
0000a0 2e 21 d3 01 ca f7 4c fe 59 27 7f e5 f2 1b 3a 50
       0.25081235 0.1799306 -0.24535991 0.0054524424 -0.2944319 -0.049071983 0.41438562 -0.010904885 0.48526737 0.21264526 0.6924602 -0.14721595 -0.07633419 0.14721595 0.31624165 0.4361954
0000b0 27 42 24 57 0a d8 3f c7 ec dd e1 38 c4 df cd e1
       0.21264526 0.3598612 0.19628793 0.4743625 0.054524425 -0.2180977 0.34350386 -0.31078923 -0.10904885 -0.19083549 -0.16902572 0.30533677 -0.32714656 -0.1799306 -0.27807456 -0.16902572
0000c0 be 0c d8 e7 e5 c7 f8 fa c8 0f df ee 2c c0 e3 c1
       -0.3598612 0.06542931 -0.2180977 -0.13631105 -0.14721595 -0.31078923 -0.04361954 -0.032714654 -0.30533677 0.08178664 -0.1799306 -0.098143965 0.23990747 -0.34895632 -0.15812083 -0.34350386
0000d0 c4 ff d5 d6 c3 03 b9 e4 45 f7 fe c1 24 4c 36 d9
       -0.32714656 -0.0054524424 -0.23445502 -0.22900258 -0.33259898 0.016357327 -0.3871234 -0.15266839 0.37621853 -0.049071983 -0.010904885 -0.34350386 0.19628793 0.41438562 0.2944319 -0.21264526
0000e0 df dd cd 9e 49 e1 8e 40 49 30 62 3c c7 f1 40 fc
       -0.1799306 -0.19083549 -0.27807456 -0.53433937 0.39802828 -0.16902572 -0.62157845 0.34895632 0.39802828 0.26171723 0.53433937 0.32714656 -0.31078923 -0.08178664 0.34895632 -0.02180977
0000f0 1a ed 2e 56 2e b2 06 c4 b3 24 e6 2f 28 3a 03 2d
       0.14176351 -0.103596404 0.25081235 0.46891004 0.25081235 -0.42529052 0.032714654 -0.32714656 -0.41983807 0.19628793 -0.14176351 0.2562648 0.2180977 0.31624165 0.016357327 0.24535991

std.constant5 i1 [9, 20] scale=0.008351127 zero_point=0
000000 2d 0e 07 f0 07 b3 19 08 0b 28 d9 d1 e7 11 36 aa
       0.3758007 0.11691578 0.05845789 -0.13361803 0.05845789 -0.6430368 0.20877817 0.06680901 0.091862395 0.33404505 -0.32569394 -0.39250296 -0.20877817 0.14196916 0.45096084 -0.71819687
000010 23 0e e8 2b 27 bf de cd 29 ad 00 fd 20 eb 06 26
       0.29228944 0.11691578 -0.20042704 0.35909843 0.32569394 -0.54282326 -0.28393832 -0.42590746 0.3423962 -0.6931435 0.0 -0.02505338 0.26723605 -0.17537366 0.05010676 0.31734282
000020 c6 c5 0f 42 de 3f d6 e5 15 1b 12 28 d6 30 02 be
       -0.48436534 -0.49271646 0.1252669 0.55117434 -0.28393832 0.52612096 -0.35074732 -0.22548042 0.17537366 0.22548042 0.15032028 0.33404505 -0.35074732 0.40085408 0.016702253 -0.55117434
000030 eb dd 0d 03 c2 0f c1 f3 1a ff d6 23 c3 e2 09 d9
       -0.17537366 -0.29228944 0.108564645 0.02505338 -0.5177699 0.1252669 -0.52612096 -0.108564645 0.21712929 -0.008351127 -0.35074732 0.29228944 -0.5094187 -0.2505338 0.07516014 -0.32569394
000040 42 1a ff 06 0e d4 e0 40 2c 07 eb 06 94 93 cc d8
       0.55117434 0.21712929 -0.008351127 0.05010676 0.11691578 -0.36744958 -0.26723605 0.5344721 0.36744958 0.05845789 -0.17537366 0.05010676 -0.9019217 -0.91027284 -0.43425858 -0.33404505
000050 25 24 ce d3 b2 cc ad 23 ed fc 05 01 e0 2f b6 1f
       0.3089917 0.30064055 -0.41755635 -0.3758007 -0.6513879 -0.43425858 -0.6931435 0.29228944 -0.15867141 -0.033404507 0.04175563 0.008351127 -0.26723605 0.39250296 -0.6179834 0.25888494
000060 ba 00 02 33 cd 02 d7 dc 13 19 01 0a a1 22 30 14
       -0.5845789 0.0 0.016702253 0.42590746 -0.42590746 0.016702253 -0.3423962 -0.30064055 0.15867141 0.20877817 0.008351127 0.08351126 -0.793357 0.28393832 0.40085408 0.16702253
000070 13 d0 ee d1 fe 48 16 aa 14 f1 2d ed f4 f8 33 33
       0.15867141 -0.40085408 -0.15032028 -0.39250296 -0.016702253 0.6012811 0.18372479 -0.71819687 0.16702253 -0.1252669 0.3758007 -0.15867141 -0.10021352 -0.06680901 0.42590746 0.42590746
000080 27 2a f7 d9 f7 f8 0f 15 f1 bf 41 0c 34 05 a2 2b
       0.32569394 0.35074732 -0.07516014 -0.32569394 -0.07516014 -0.06680901 0.1252669 0.17537366 -0.1252669 -0.54282326 0.54282326 0.10021352 0.43425858 0.04175563 -0.7850059 0.35909843
000090 05 eb 01 03 81 f0 fd 0a e4 21 df 85 d9 33 df a9
       0.04175563 -0.17537366 0.008351127 0.02505338 -1.0605931 -0.13361803 -0.02505338 0.08351126 -0.23383155 0.27558717 -0.27558717 -1.0271885 -0.32569394 0.42590746 -0.27558717 -0.726548
0000a0 ea c4 31 0a b8 2f 00 fb 0c ed dd cc 12 0f 2d d9
       -0.18372479 -0.5010676 0.4092052 0.08351126 -0.6012811 0.39250296 0.0 -0.04175563 0.10021352 -0.15867141 -0.29228944 -0.43425858 0.15032028 0.1252669 0.3758007 -0.32569394
0000b0 0c f8 fb 26
       0.10021352 -0.06680901 -0.04175563 0.31734282
